…
64/64 - 30s - loss: 1.1358 - mean_absolute_error: 0.9014
Epoch 1/4
64/64 - 30s - loss: 1.1057 - mean_absolute_error: 0.9014
Epoch 1/4
64/64 - 30s - loss: 1.2044 - mean_absolute_error: 0.9014
Epoch 1/4
64/64 - 30s - loss: 1.2561 - mean_absolute_error: 0.9014
Epoch 1/4
64/64 - 30s - loss: 1.0926 - mean_absolute_error: 0.9014
Epoch 1/4
64/64 - 30s - loss: 1.0362 - mean_absolute_error: 0.9014
Model: "sequential"
_________________________________________________________________
Layer (type)                 Output Shape              Param #   
=================================================================
conv3d (Conv3D)              (None, 127, 127, 127, 16) 528       
_________________________________________________________________
leaky_re_lu (LeakyReLU)      (None, 127, 127, 127, 16) 0         
_________________________________________________________________
max_pooling3d (MaxPooling3D) (None, 63, 63, 63, 16)    0         
_________________________________________________________________
conv3d_1 (Conv3D)            (None, 62, 62, 62, 16)    2064      
_________________________________________________________________
leaky_re_lu_1 (LeakyReLU)    (None, 62, 62, 62, 16)    0         
_________________________________________________________________
max_pooling3d_1 (MaxPooling3 (None, 31, 31, 31, 16)    0         
_________________________________________________________________
conv3d_2 (Conv3D)            (None, 30, 30, 30, 16)    2064      
_________________________________________________________________
leaky_re_lu_2 (LeakyReLU)    (None, 30, 30, 30, 16)    0         
_________________________________________________________________
max_pooling3d_2 (MaxPooling3 (None, 15, 15, 15, 16)    0         
_________________________________________________________________
conv3d_3 (Conv3D)            (None, 14, 14, 14, 16)    2064      
_________________________________________________________________
leaky_re_lu_3 (LeakyReLU)    (None, 14, 14, 14, 16)    0         
_________________________________________________________________
max_pooling3d_3 (MaxPooling3 (None, 7, 7, 7, 16)       0         
_________________________________________________________________
conv3d_4 (Conv3D)            (None, 6, 6, 6, 16)       2064      
_________________________________________________________________
leaky_re_lu_4 (LeakyReLU)    (None, 6, 6, 6, 16)       0         
_________________________________________________________________
max_pooling3d_4 (MaxPooling3 (None, 3, 3, 3, 16)       0         
_________________________________________________________________
flatten (Flatten)            (None, 432)               0         
_________________________________________________________________
dropout (Dropout)            (None, 432)               0         
_________________________________________________________________
dense (Dense)                (None, 128)               55424     
_________________________________________________________________
leaky_re_lu_5 (LeakyReLU)    (None, 128)               0         
_________________________________________________________________
dropout_1 (Dropout)          (None, 128)               0         
_________________________________________________________________
dense_1 (Dense)              (None, 64)                8256      
_________________________________________________________________
leaky_re_lu_6 (LeakyReLU)    (None, 64)                0         
_________________________________________________________________
dropout_2 (Dropout)          (None, 64)                0         
_________________________________________________________________
dense_2 (Dense)              (None, 4)                 260       
_________________________________________________________________
lambda (Lambda)              (None, 4)                 0         
=================================================================
Total params: 72,724
Trainable params: 72,724
Non-trainable params: 0
_________________________________________________________________
Epoch 1/4
64/64 - 30s - loss: 1.1550 - mean_absolute_error: 0.9014
Epoch 2/4
64/64 - 6s - loss: 0.3367 - mean_absolute_error: 0.4539
Epoch 2/4
64/64 - 6s - loss: 0.3065 - mean_absolute_error: 0.4539
…
